…
_init_lr': 1e-07, 'lr': [0.0004]}, 'scoring': {'_name': 'bleu', 'pad': 1, 'eos': 2, 'unk': 3}, 'bpe': None, 'tokenizer': None, 'ema': {'_name': None, 'store_ema': False, 'ema_decay': 0.9999, 'ema_start_update': 0, 'ema_seed_model': None, 'ema_update_freq': 1, 'ema_fp32': False}}
2024-12-01 18:22:32 | INFO | fairseq.tasks.translation | [src] dictionary: 9968 types
2024-12-01 18:22:32 | INFO | fairseq.tasks.translation | [tgt] dictionary: 40 types
2024-12-01 18:22:32 | INFO | fairseq_cli.train | TransformerModel(
(encoder): TransformerEncoderBase(
(dropout_module): FairseqDropout()
(embed_tokens): Embedding(9968, 512, padding_idx=1)
(embed_positions): SinusoidalPositionalEmbedding()
(layers): ModuleList(
(0-5): 6 x TransformerEncoderLayerBase(
(self_attn): MultiheadAttention(
(dropout_module): FairseqDropout()
(k_proj): Linear(in_features=512, out_features=512, bias=True)
(v_proj): Linear(in_features=512, out_features=512, bias=True)
(q_proj): Linear(in_features=512, out_features=512, bias=True)
(out_proj): Linear(in_features=512, out_features=512, bias=True)
)
(self_attn_layer_norm): LayerNorm((512,), eps=1e-05, elementwise_affine=True)
(dropout_module): FairseqDropout()
(activation_dropout_module): FairseqDropout()
(fc1): Linear(in_features=512, out_features=2048, bias=True)
(fc2): Linear(in_features=2048, out_features=512, bias=True)
(final_layer_norm): LayerNorm((512,), eps=1e-05, elementwise_affine=True)
)
)
)
(decoder): TransformerDecoderBase(
(dropout_module): FairseqDropout()
(embed_tokens): Embedding(40, 512, padding_idx=1)
(embed_positions): SinusoidalPositionalEmbedding()
(layers): ModuleList(
(0-5): 6 x TransformerDecoderLayerBase(
(dropout_module): FairseqDropout()
(self_attn): MultiheadAttention(
(dropout_module): FairseqDropout()
(k_proj): Linear(in_features=512, out_features=512, bias=True)
(v_proj): Linear(in_features=512, out_features=512, bias=True)
(q_proj): Linear(in_features=512, out_features=512, bias=True)
(out_proj): Linear(in_features=512, out_features=512, bias=True)
)
(activation_dropout_module): FairseqDropout()
(self_attn_layer_norm): LayerNorm((512,), eps=1e-05, elementwise_affine=True)
(encoder_attn): MultiheadAttention(
(dropout_module): FairseqDropout()
(k_proj): Linear(in_features=512, out_features=512, bias=True)
(v_proj): Linear(in_features=512, out_features=512, bias=True)
(q_proj): Linear(in_features=512, out_features=512, bias=True)
(out_proj): Linear(in_features=512, out_features=512, bias=True)
)
(encoder_attn_layer_norm): LayerNorm((512,), eps=1e-05, elementwise_affine=True)
(fc1): Linear(in_features=512, out_features=2048, bias=True)
(fc2): Linear(in_features=2048, out_features=512, bias=True)
(final_layer_norm): LayerNorm((512,), eps=1e-05, elementwise_affine=True)
)
)
(output_projection): Linear(in_features=512, out_features=40, bias=False)
)
)
2024-12-01 18:22:32 | INFO | fairseq_cli.train | task: TranslationTask
2024-12-01 18:22:32 | INFO | fairseq_cli.train | model: TransformerModel
2024-12-01 18:22:32 | INFO | fairseq_cli.train | criterion: CrossEntropyCriterion
2024-12-01 18:22:32 | INFO | fairseq_cli.train | num. shared model params: 49,283,072 (num. trained: 49,283,072)
2024-12-01 18:22:32 | INFO | fairseq_cli.train | num. expert model params: 0 (num. trained: 0)
…
